data.pth (torch, 6513 bytes, 6 tensors)

l1.weight f4 [8, 69]
0	0xbc0b366d	-0.008496863
1	0xbe8acadf	-0.27107903
2	0xbe05f50d	-0.1308176
3	0xbe770b10	-0.24125314
4	0x3edc4c7e	0.4302711
5	0xbc877d9f	-0.016539393
6	0xbeeeb75e	-0.46624273
7	0xbe4068d3	-0.18789987
8	0xbd0e2ea9	-0.034712467
9	0xbf076d22	-0.529009
10	0xbe8861f0	-0.2663722
11	0xbe5d3b9e	-0.21604773
12	0x3de3035c	0.11084625
13	0x3f2d7ca2	0.677683
14	0x3ea9c065	0.33154598
15	0x3f02bd4f	0.5107011
16	0x3f020690	0.50791264
17	0x3e474aba	0.194621
18	0xbe55df20	-0.20885897
19	0x3f014d42	0.5050851
20	0x3ef60215	0.48048463
21	0xbeeebcd0	-0.46628428
22	0x3dfa350a	0.12217148
23	0x3f3a53ae	0.72783935
24	0xbd67fd78	-0.05663821
25	0x3f1243aa	0.571345
26	0x3f357676	0.7088388
27	0x3f352a6f	0.70767874
28	0x3e4d3e90	0.20043397
29	0x3f042b76	0.51628816
30	0xbe70c698	-0.23513258
31	0x3df455c9	0.11930425
32	0xbe99ee73	-0.30064735
33	0x3e002402	0.12513736
34	0xbe2a9489	-0.16658224
35	0xbe5ec2b5	-0.21753962
36	0xbdfd7658	-0.12376088
37	0x3efcf90b	0.49408755
38	0xbe6c6fd0	-0.23089528
39	0xbe74026a	-0.23829046
40	0xbde4a491	-0.11164201
41	0x3ec6bd07	0.3881609
42	0xbde3b54e	-0.111185655
43	0x3e8f3bb7	0.27975246
44	0x3e43cbd9	0.1912073
45	0x3d7cd839	0.061729643
46	0xbe879c22	-0.26486307
47	0xbd188d7a	-0.037244298
48	0xbe35b3ba	-0.17744341
49	0xbbcc9208	-0.006242994
50	0xbe3c05a7	-0.18361531
51	0xbe5e204d	-0.2169201
52	0x3dbcb2b8	0.092137754
53	0x3ec8725a	0.39149743
54	0xbdea098b	-0.114276014
55	0xbd976c7d	-0.07393739
56	0x3df36c9b	0.11885949
57	0xbd9324df	-0.07184767
58	0xbee0c7c8	-0.4390242
59	0xbd0ee0c7	-0.034882333
60	0x3ea8b562	0.32950884
61	0xbb81993b	-0.003955034
62	0x3ebfc6b3	0.37456283
63	0xbeacb20f	-0.33729598
64	0x3f07baa4	0.53019166
65	0x3ee46357	0.4460704
66	0x3e79271e	0.24331328
67	0xbd29dd4a	-0.041470803
68	0xbb90ccc0	-0.0044189394
69	0x3ae2f34e	0.0017314942
70	0x3f268d1f	0.65059084
71	0xbe634de3	-0.2219768
72	0xbda92947	-0.08259826
73	0x3da6170f	0.08109867
74	0xbe3682ac	-0.17823285
75	0xbf0fb4f0	-0.56135464
76	0xbe74736a	-0.23872152
77	0xbe6273b2	-0.22114447
78	0xbec9adb8	-0.3939035
79	0xbed2c108	-0.41162896
80	0xbe5a2bdd	-0.21305795
81	0xbebd8e64	-0.37022698
82	0x3f1b58f8	0.6068263
83	0xbd34e9c6	-0.044168256
84	0x3f1855a7	0.59505695
85	0x3f148b30	0.58024883
86	0x3ea138eb	0.31488737
87	0x3f4709b8	0.77749205
88	0x3ea36672	0.31914097
89	0x3f371cb8	0.71528196
90	0xbf0fb689	-0.561379
91	0xbe1972ba	-0.14985171
92	0x3f2febeb	0.6871936
93	0xbc781567	-0.0151418215
94	0x3f3ddaac	0.7416179
95	0x3f436474	0.76325154
96	0x3f4d38e9	0.80164963
97	0x3e80d99a	0.25166017
98	0x3f13b523	0.5769827
99	0xbe0090a9	-0.12555183
100	0xbecb1e08	-0.3967135
101	0x3f34e45b	0.7066094
102	0xbd928611	-0.071544774
103	0x3f320fb4	0.6955521
104	0xbedc61e6	-0.4304344
105	0x3f0ff78b	0.56237096
106	0x3f15d3f3	0.58526534
107	0x3f1f3ca3	0.622019
108	0xbed44108	-0.41455865
109	0x3f4f9f6e	0.81102645
110	0x3efa0626	0.48832816
111	0x3d2dce1c	0.04243289
112	0x3e8dd00a	0.27697784
113	0xbd6a251b	-0.057164293
114	0xbebb20b6	-0.36548394
115	0xbeb3405a	-0.35010034
116	0xbe466499	-0.19374312
117	0xbe59f3bb	-0.21284382
118	0xbe40f2c3	-0.18842606
119	0x3f06c8af	0.5264997
120	0xbe610019	-0.21972694
121	0xbeb1101a	-0.34582597
122	0x3edb0691	0.42778447
123	0xbc87f0e7	-0.016594363
124	0x3f341aa2	0.7035314
125	0xbd383976	-0.044976674
126	0x3efb8e19	0.4913185
127	0x3e09507b	0.13409607
128	0xbd7e3a1b	-0.062067132
129	0x3ef3e480	0.4763527
130	0xbd4ae26a	-0.04953233
131	0x3f004664	0.5010741
132	0xbe85130c	-0.25991094
133	0xbd8a2a55	-0.067463554
134	0x3ec7e2df	0.39040276
135	0xbdb95666	-0.09049682
136	0xbe2bdb29	-0.16782822
137	0x3df3f484	0.11911872
138	0xbdd60e1c	-0.1045191
139	0x3dbf4c90	0.09340775
140	0x3e3e64f4	0.18593198
141	0xbe49efac	-0.19720334
142	0x3efddf27	0.49584314
143	0x3ebc6950	0.36799097
144	0x3f567efa	0.837875
145	0x3ec65407	0.38735983
146	0x3eb48218	0.35255504
147	0x3f42716f	0.75954336
148	0x3ec8b24f	0.3919854
149	0x3f04502e	0.51684844
150	0x3e76b6a6	0.24093112
151	0xbed48280	-0.41505814
152	0x3eefb91e	0.4682092
153	0xbe900099	-0.28125456
154	0x3ea912f8	0.33022285
155	0xbd7cb414	-0.061695173
156	0x3e8d5288	0.2760203
157	0xbeb2b2bc	-0.34901989
158	0x3ede8ff0	0.4346919
159	0x3f4a2d02	0.78974926
160	0x3ecc70de	0.3992986
161	0x3ee1e436	0.44119424
162	0xbe815cc1	-0.25266078
163	0x3ebc8a10	0.36824083
164	0x3ecc2c94	0.3987776
165	0xbe08acec	-0.13347214
166	0xbe26faa2	-0.16306546
167	0xbe954721	-0.2915583
168	0xbe47ce7e	-0.19512364
169	0x3f07a978	0.52992964
170	0x3e280587	0.16408359
171	0x3e863cf9	0.26218393
172	0xbe432eb5	-0.19060786
173	0x3f2df58f	0.6795282
174	0x3e797aa3	0.24363188
175	0xbe9d9857	-0.3078029
176	0x3e350efd	0.17681499
177	0x3e3b092a	0.18265215
178	0x3e7764c6	0.24159536
179	0x3ea1f40b	0.31631503
180	0xbde98e89	-0.114041395
181	0x3e471c20	0.19444323
182	0x3e9b72ae	0.3036093
183	0x3e6a0319	0.22852744
184	0x3e868f02	0.2628098
185	0x3eaafb89	0.3339503
186	0x3eb16491	0.3464704
187	0x3ede6228	0.43434262
188	0x3e6d2fb9	0.23162736
189	0x3ec1f1aa	0.37879688
190	0x3f131d09	0.5746618
191	0xbeaf6cec	-0.34262788
192	0xbcd78e9a	-0.026313115
193	0x3e1d0ff5	0.15338118
194	0x3f02582d	0.50915796
195	0x3e8965b4	0.26835406
196	0xbf0e3809	-0.5555425
197	0xbe4b0faf	-0.19830202
198	0xbe906e39	-0.28209093
199	0x3e6082bb	0.2192487
200	0xbe8f2d61	-0.2796431
201	0x3e98682c	0.29766977
202	0x3f3672d9	0.71268994
203	0xbe94e89e	-0.29083723
204	0x3e9968d7	0.299628
205	0x3e6a6126	0.22888622
206	0x3dc80b09	0.0976773
207	0xbe35bb0d	-0.17747135
208	0x3eeddb48	0.4645636
209	0x3dfa1302	0.12210657
210	0xbec8b9b2	-0.39204174
211	0x3e941671	0.2892337
212	0x3ec7ad7b	0.38999543
213	0x3f283bbe	0.6571616
214	0x3ea17ceb	0.31540617
215	0x3e4a61a6	0.19763812
216	0x3f004ee1	0.5012036
217	0x3e3a494d	0.18192025
218	0x3ecdd713	0.4020315
219	0x3e58b254	0.21161777
220	0xbecb38d5	-0.39691797
221	0x3ee6e245	0.45094505
222	0xbd6f1181	-0.058366302
223	0xbe7183e8	-0.23585474
224	0x3d698e95	0.057020742
225	0x3f36287f	0.7115554
226	0xbe5c2598	-0.21498716
227	0xbeaa5748	-0.33269715
228	0x3f12ef4f	0.57396406
229	0x3eb051ad	0.34437314
230	0xbf10fbcc	-0.5663421
231	0xbe6a12c5	-0.22858723
232	0xbf10b1c4	-0.5652125
233	0xbf118ea4	-0.5685828
234	0xbeca61a5	-0.39527622
235	0x3cd92e46	0.026511323
236	0xbeb975e4	-0.36222756
237	0xbe4fe8b2	-0.2030361
238	0x3efffe0c	0.4999851
239	0x3f08e628	0.5347619
240	0x3eb0cccc	0.34531248
241	0x3f03ce8b	0.51487035
242	0x3f13a57d	0.5767439
243	0x3f1ac6ac	0.604594
244	0xbe8c809d	-0.27441874
245	0x3f1863cf	0.59527296
246	0x3c8f5faf	0.01750168
247	0x3f3ea9f2	0.74478066
248	0xbe719620	-0.23592424
249	0xbe4412c7	-0.19147788
250	0xbd949b6a	-0.072562054
251	0x3e1fcc6c	0.15605325
252	0x3e6fce75	0.23418601
253	0x3d7b4531	0.061345283
254	0x3e3a461d	0.18190809
255	0x3e784d09	0.24248137

l1.bias f4 [8]
0	0x3eeeb9fb	0.46626267
1	0x3f0fb9e5	0.5614303
2	0x3f0e39d3	0.5555698
3	0x3f118af8	0.56852674
4	0x3f713063	0.9421446
5	0x3ef2c9e0	0.47419643
6	0x3f59c6aa	0.8506876
7	0x3f0df213	0.554475

l2.weight f4 [8, 8]
0	0x3f11a0c9	0.56885964
1	0x3d0ef20e	0.03489881
2	0x3f5f5e86	0.87253606
3	0xbe357b73	-0.17722873
4	0xbe6f03f3	-0.2334135
5	0x3f126ec0	0.5720024
6	0xbf8e5c4e	-1.1121919
7	0x3fa52150	1.2900791
8	0xbf4b3cd6	-0.79389703
9	0xbf298018	-0.6621108
10	0x3f33ed65	0.7028411
11	0x3cbc1385	0.022958526
12	0x3e1d25b7	0.15346418
13	0x3f083a5d	0.53214055
14	0x3f767c4f	0.9628343
15	0xbfb1bab5	-1.3885103
16	0x3ead578b	0.33855852
17	0xbf6389a1	-0.8888188
18	0x3f7ea3d2	0.9946872
19	0x3f36ea31	0.714511
20	0x3f147b59	0.58000714
21	0x3f92d06a	1.1469853
22	0xbf171d3d	-0.5902899
23	0x3f2bcd8b	0.6711051
24	0x3f7ce578	0.9878764
25	0x3f95d039	1.170417
26	0xbf586e1d	-0.8454302
27	0xbf857810	-1.0427265
28	0x3f8de2b9	1.1084815
29	0xbf3e63e2	-0.7437116
30	0x3f8521b9	1.0400916
31	0x3ebc49e7	0.36775133
32	0xbf22ff78	-0.63671064
33	0x3f0551d8	0.5207801
34	0x3f266207	0.6499333
35	0x3f8be714	1.0929894
36	0xbf783396	-0.96953714
37	0xbe85602c	-0.26049936
38	0x3f8654ee	1.0494668
39	0x3e8c947d	0.27457038
40	0xbf6cad72	-0.92452157
41	0xbf76cdd4	-0.9640782
42	0x3ec77379	0.38955286
43	0x3eea6485	0.45779815
44	0x3fa79479	1.3092185
45	0x3f3958c5	0.72401077
46	0x3f3fd353	0.7493183
47	0xbf0223de	-0.5083598
48	0x3f9500f5	1.1640917
49	0x3f991d20	1.1962013
50	0x3ee56b5a	0.44808465
51	0xbe7b801a	-0.24560586
52	0x3de84824	0.11341885
53	0x3ee8eb55	0.45492044
54	0xbef6e2ac	-0.48219812
55	0x3f97d517	1.1861905
56	0x3eec4eb1	0.46153787
57	0xbf5372e0	-0.8259716
58	0x3ec3f2b2	0.382711
59	0x3f2c345e	0.67267406
60	0xbf63dc7e	-0.8900832
61	0x3e560219	0.20899238
62	0xbf1dcd7d	-0.61641675
63	0x3f3af055	0.7302297

l2.bias f4 [8]
0	0x3e5d2471	0.21595933
1	0x3ec8dd06	0.39231128
2	0x3e1da6c7	0.15395652
3	0x3f39423a	0.7236668
4	0x3ec2d85f	0.38055703
5	0x3dc8140b	0.09769448
6	0x3dd2ddd1	0.10296214
7	0x3ea896ae	0.3292746

l3.weight f4 [7, 8]
0	0xbfb9f0c0	-1.4526596
1	0xbfe18f45	-1.7621847
2	0xbfa7f10b	-1.3120435
3	0x3f2dceee	0.67893875
4	0xbf6c4d00	-0.9230499
5	0xbf95625f	-1.1670645
6	0x3f09fe3c	0.53903556
7	0xbdbc69c2	-0.09199859
8	0xbf53711a	-0.82594454
9	0xbfbec852	-1.4904883
10	0xbf4b61f2	-0.7944633
11	0xbe50e552	-0.20399979
12	0x3f56ee03	0.8395693
13	0xbe763bbd	-0.24046226
14	0xbc297907	-0.010343797
15	0xbe3c7698	-0.18404615
16	0xbfc5317e	-1.5405729
17	0x3f4e202f	0.8051786
18	0x3e81fd94	0.25388777
19	0xbf825f86	-1.0185401
20	0x3e303c17	0.17210422
21	0x3ef3d3af	0.4762244
22	0xbf2a1a36	-0.66446245
23	0xbeada84f	-0.33917472
24	0x3f3d45b7	0.739345
25	0xbff2b197	-1.8960446
26	0x3e04d8df	0.12973355
27	0xbe077887	-0.13229571
28	0xbf48e950	-0.78481007
29	0xbfa291ac	-1.2700706
30	0x3f2de8ae	0.67933166
31	0xbf3fae95	-0.74875766
32	0x3f0e5fc8	0.556149
33	0xbfa76a8b	-1.3079389
34	0x3ef88061	0.48535445
35	0xbf9aca65	-1.2093016
36	0x3e29ee07	0.16594706
37	0xbfa8016e	-1.3125436
38	0xbdaf8e3c	-0.08572051
39	0x3f5a7794	0.8533871
40	0x3d6ef06e	0.05833476
41	0xbf847e4c	-1.0351043
42	0x3f21b655	0.6316884
43	0xbf8adbd9	-1.0848342
44	0xbf854374	-1.041121
45	0x3eed2430	0.4631667
46	0x3cfb8bee	0.030706372
47	0x3cf08230	0.029358953
48	0xbf250b56	-0.6447042
49	0x3e9cdf6d	0.3063921
50	0xbfa1045d	-1.2579457
51	0x3f32d771	0.6985999
52	0xbe91c435	-0.28470007
53	0x3ea3d416	0.31997746
54	0xbf6852a6	-0.9075111
55	0xbde3ecb0	-0.11129129

l3.bias f4 [7]
0	0xbd4e724f	-0.050401982
1	0x3d7d60a0	0.061859727
2	0xbd0d3c9e	-0.034481637
3	0x3e90374a	0.28167182
4	0xbea13c46	-0.31491297
5	0xbe3c3f21	-0.18383457
6	0x3e85941b	0.26089558
