models/intent_classifier.pth (torch, 606989 bytes, 6 tensors)

model.0.weight f4 [256, 384]
00000000: 396a 2b3f 7bb9 eebd fb67 59bd 32ab c73d
00000010: 4b41 27be 2316 8cbe 5ed0 c5bd 81d6 e0be
00000020: c554 3abe 9c8c 3dbd 6332 7fbe e299 f0bd
00000030: 517f 04be 5d91 4ebe 282d fd3c de05 df3d
00000040: 5f41 3c3d b361 0ebd bd11 653e 5611 6abe
00000050: ae9e f3bc cc70 a0be 4f96 67bc b8f3 31bb
00000060: 6e7c 7f3e 303f 9ebe 6014 b33e 17ec 933e
00000070: 6350 b2bd fefe 043e 70f7 853d 010a fe3c
00000080: 8f04 6bbe eee2 743e 8580 12be 8225 ad3d
00000090: c7ba 0abd cac1 533e 8736 523d b8d6 a9be
000000a0: ba1f fe3c 5f15 173e 5177 2c3c 0b15 593e
000000b0: 08dc 1a3e 200b 1dbe 8a29 da3e da02 d03d
000000c0: be14 903d 41b1 3dbe b8f3 9d3e 98b1 96bd
000000d0: 4a2b 273f bee3 99be 3172 a13d cb3c ca3e
000000e0: c23e 703c 8aa3 86bd e27c 3cbd 3f80 fe3c
000000f0: 0586 df3b 6dfc 90be bb8f 56bd 6879 bc3d
00000100: 159f 8b3e 45e2 c83e deb6 c83e 29e5 b3bd
00000110: e3fd 1f3d 03cb 73be 9492 2d3c 35bc 51be
00000120: 6280 d63d b8e6 d8be 4246 c5bc ff7f 8dbe
00000130: 4415 12be c2c0 c6bd bb08 093c 7128 b33e
00000140: 2693 31be 8da3 523c 09da 0abe bfed 543e
00000150: 5dbb d8bd 8073 bc3d 3730 123d 3cab 063d
00000160: 90c7 3bbc ec10 d73e 2e89 7c3c a7f5 4ebe
00000170: 9ebb 2abe bb50 733e ba67 213e d225 6ebe
00000180: a3eb b63e 974d 51bd e68c 443d 06a5 4abc
00000190: f72d 9bbd 17d1 e1bc bd67 383e 3c5e a8bc
000001a0: b8d3 3a3e db5b 463e 5fb3 d13e d899 debc
000001b0: 7a49 fdbe b65d 803e 7d5d bd3d 738b 43be
000001c0: 7168 36bc 7e7f c23e 51e6 243e b077 87be
000001d0: 8643 07bf cc39 88bc a76c 71be ef0c a73c
000001e0: 1307 f6bd 45be b23e 8e1c 673d 1686 ab3d
000001f0: f204 e33c 8dc6 c13c a1e3 debe 3302 cc3c
00000200: e385 c1bd 1c0f e03e a616 a13c d79e 9fbe
00000210: d95c bbbd 65e5 c63e 0a32 3fbe e027 7e3d
00000220: 07e7 5fba 7aa5 203e 2e38 0fbe b5c5 54be
00000230: 5c31 0abe d70d b9bd 0bb6 14bd 8574 303e
00000240: 8a79 7e3e 1600 bc3e 0c4e abbe df44 9ebc
00000250: ee08 9f3e fe81 583c 54dd 2bbf 91f9 06bf
00000260: 69d9 1dbd 2efd 29be 0692 293d e206 983e
00000270: ba9c e53c ec96 453e d692 a0bd 20f4 e5bc
00000280: 2dbb e33d a577 44be 4efa 84be 178b babe
00000290: 6cfa 713c 0626 94bd 75d3 db3d 61d2 483e
000002a0: 16de aebd b771 84be 2c7c 983d 595d 913e
000002b0: f26b c1be 651a f73e 66f3 1fbe cae9 473d
000002c0: 38a5 633e 2808 433e 934b 05bf 275e 1a3e
000002d0: 02b7 0ebe e632 c6bd ee53 423e 8009 0ebe
000002e0: 3d4a 40bd b775 e1be f277 c5be 13bf debd
000002f0: da81 343e 1a39 9d3e c2d9 84bd 975e f63c
00000300: 138e a93d a7f7 ad3e 7a4d b83e e8be 4e3e
00000310: e67a 31bd 3ebb 53be 0085 95bd f60d 73be
00000320: a79a 55bd 79d7 a83e a43e 95bd 641c 3abe
00000330: a882 94be 52ca 7b3e 6852 1dbe 4c44 f1bd
00000340: 7f61 303e a0d7 cd3e 8821 9fbe e43f 013e
00000350: 4e3e b93d f9fb 89bd 44c8 55be 1c86 83bd
00000360: 9eed 85be d5f5 9fbe f1b5 f0bd 0a19 fe3c
00000370: 3f42 5a3e 6e1d aa3d bafe c7be b170 bf3c
00000380: e539 2fbe 15c3 6dbe a048 313e d99d 84bc
00000390: 2252 383e 43ec 073e dcbc 803e a56b d1be
000003a0: 06e3 fe3d d14f 053f 6f79 0a3d 360a 2bbd
000003b0: c1c0 22be 828a 81be 140c e5be f37f 0dbd
000003c0: 7264 533e 6b95 a53e eafc a9bd 6a47 63be
000003d0: 0bf1 52bb a294 07be ad39 46be 4fac ad3d
000003e0: cbc8 9a3c d8de 91bd 2a1c adbd 5635 b33e
000003f0: 1766 1bbe 797e e33c 8c80 b9be 07ab 873e
0.6695896 -0.11656471 -0.05307768 0.0974945 -0.16333501 -0.2736064 -0.096588835 -0.43913653
-0.181964 -0.046276674 -0.24921565 -0.11748101 -0.12939192 -0.20172639 0.030905321 0.10889791
0.04596078 -0.034761142 0.22370048 -0.22858176 -0.02973875 -0.31336057 -0.014134957 -0.0027153324
0.2494981 -0.30907583 0.34976482 0.2889106 -0.08706739 0.12987897 0.065413356 0.03101063
-0.22950958 0.23914692 -0.14306839 0.0845442 -0.03386953 0.20679393 0.051321533 -0.3317163
0.031020988 0.14754246 0.010526494 0.21199434 0.15122998 -0.15336275 0.42609817 0.10156794
0.07035206 -0.18524648 0.30850005 -0.07358092 0.6530043 -0.30056566 0.078831084 0.39499506
0.0146634 -0.06574161 -0.046017535 0.031067012 0.0068213963 -0.28317586 -0.052383166 0.09202844
0.27269807 0.3923513 0.39202017 -0.08783943 0.039060485 -0.23807912 0.010594029 -0.20481952
0.10473706 -0.42363524 -0.024081353 -0.27636716 -0.14265925 -0.097047344 0.008363898 0.34991792
-0.17341289 0.012856376 -0.13559736 0.20793818 -0.10582612 0.092017174 0.035690513 0.032878146
-0.011461154 0.42005098 0.015413566 -0.20210896 -0.16673133 0.23761265 0.15762225 -0.23256615
0.35726652 -0.051099386 0.047985934 -0.012368446 -0.075771265 -0.027565522 0.18008323 -0.020552747
0.18244827 0.19370978 0.40957162 -0.027172968 -0.4947012 0.25071496 0.09246347 -0.19096164
-0.011133299 0.37987894 0.16103484 -0.26458502 -0.5283741 -0.016629122 -0.23576604 0.02039191
-0.12013068 0.3491079 0.056423716 0.08375184 0.027712319 0.023654247 -0.43533042 0.024903392
-0.09449365 0.43761528 0.01966412 -0.31175873 -0.09148569 0.3884689 -0.18671432 0.062049747
-0.00085412007 0.15688124 -0.13986275 -0.20778544 -0.13495392 -0.09035843 -0.036306422 0.17231949
0.24851051 0.36718816 -0.33457983 -0.01931995 0.310615 0.013214586 -0.67134595 -0.5272456
-0.038537417 -0.16600487 0.041399024 0.2969275 0.028028835 0.19295853 -0.07840507 -0.02807051
0.11119685 -0.19186266 -0.25972217 -0.36434242 0.014769178 -0.07233815 0.107336916 0.19611503
-0.08538453 -0.25868008 0.07445559 0.2839153 -0.37777668 0.48262325 -0.15620193 0.048806943
0.22230995 0.1904608 -0.5206844 0.15074979 -0.13937 -0.09677677 0.18977329 -0.13870811
-0.0469458 -0.44035122 -0.38568074 -0.10876288 0.1762766 0.30707628 -0.064868465 0.0300744
0.08279052 0.33978006 0.3599661 0.20190012 -0.043330096 -0.20676896 -0.07300758 -0.23735794
-0.05214944 0.32976893 -0.072873384 -0.18174893 -0.29005933 0.24588898 -0.15363467 -0.11780605
0.17224692 0.4020357 -0.3108027 0.12622029 0.09045087 -0.06737513 -0.20877177 -0.06422064
-0.2615785 -0.31242242 -0.117534526 0.031017799 0.21314333 0.083063945 -0.39061528 0.023369165
-0.17111929 -0.23218949 0.1731286 -0.016188549 0.18000081 0.1327372 0.25144088 -0.4090244
0.12445645 0.52074915 0.033807214 -0.041757785 -0.15893842 -0.25300986 -0.44735777 -0.03454585
0.20643786 0.3234056 -0.08300193 -0.22195211 -0.003218713 -0.13240293 -0.19357939 0.08480131
0.018894574 -0.07122582 -0.084526375 0.3500163 -0.15175663 0.027770268 -0.36230886 0.2649767

model.0.bias f4 [256]
00000000: 9d28 b53d 8221 a73d 140a 4d3e 4d36 02be
00000010: 7f43 743d 5a15 13be 4959 413d 0372 b9bd
00000020: 8538 11bd 7c66 ef3c 44bd e83c 70c1 853c
00000030: 6c69 e43c 0223 e0bc 071b 73bc 6648 283e
00000040: c288 f43d c06d e5bd c2ff 8b3c 3bfb 553d
00000050: dd2d 5d3d 2140 cb3b 8f5c 643d 5b19 a63d
00000060: 911a a53d a15a 323d ba3e 243d 5a70 413d
00000070: fb42 eabd 2a5a 833d 81d5 6eba e51b b13d
00000080: a8d8 88bc da41 23be 53b3 103d 584e e1bd
00000090: 0c0d 2b3d 348d 80bd bc63 083e 261c b8bc
000000a0: 3ce4 2c3e ed62 abbd 06e6 fcbd 976c 5d3d
000000b0: 5fea 4fbd 2438 373e cb18 fbbc f46f 613e
000000c0: 3775 e0bd 8313 3fbd a97f 343d 6e76 063e
000000d0: 681f 3fbd c4ce 333e a611 163e d87a 433e
000000e0: 6146 b4bc 05b8 8f3b 2697 e83d 9966 cebc
000000f0: d8e8 5aba f5ea 303e 06b9 813e ef17 cdbd
00000100: e362 443e 4c48 5cbd 17db de3c 7000 aebd
00000110: 827b 86bd 33fd b63b 6474 213e b1ac cfbd
00000120: 7178 05bd 9257 f33a 643b ea3d 441f 58bd
00000130: ec9b 93bb efb5 e33d 1085 033e c219 fcbd
00000140: e6c2 2e3e b263 9dbd cb2f 923c edbe 76bc
00000150: 2e14 4a3e 3bb9 29be f29b 2d3e 9702 0a3e
00000160: 2388 513d 058a ddbd 3b39 3d3d 0850 febb
00000170: 1a5f a33c 1cb0 bebc f82d 5a3d 9900 2b3e
00000180: cd64 4fbd 53fc 09be a2dd cfbc 2973 42bd
00000190: 5eec c0bd 2710 433c 0d66 18be 9256 363c
000001a0: 1bc2 643d d0da 133d 5c14 653d 0bfc 333e
000001b0: c87a bc3d acd5 333e b8de 16bd 4e47 403d
000001c0: 38cc 203e 309a bebd 79b2 5d3d 0dd2 243e
000001d0: 01e6 0f3d 7ae1 46bd 78c8 d73d 3deb 093d
000001e0: ace3 1fbd 5676 0b3d 8603 023e bf0e d13d
000001f0: 87a2 f03d 2ee2 aabc 8a0b 69bd 2b9a 3abc
00000200: 72dd cfbc b2d4 79bd 435d a53d 7c90 47bd
00000210: 5c60 5abd fb86 803d 5b61 8ebc 7b1c cbbd
00000220: 5d29 b8bd 756b a5bd 1f7f a0bc 7789 153e
00000230: b989 95bd 18d5 2f3d 01c1 103e ea9e 923d
00000240: 31a2 ba3d 520b 703d 32c1 91bd 3184 b63b
00000250: 70c4 c63c 2603 17bc cc60 9aba 3c87 25bc
00000260: 0357 56bd 031a e0bd d24f b5bc bb76 ffbb
00000270: d199 34bd 587d f3bc 40ef 153d 0248 e73d
00000280: 87bc aebd a640 9fbd d14e e5bd a875 c13d
00000290: c121 20be 9d21 1bbd 1c93 cfbd c9e4 0d3d
000002a0: e525 023e d79c f13c 0eb4 0b3e 4b8e f23c
000002b0: 38de 04bd 48c6 bf3d f922 273d 9905 103d
000002c0: b052 08be af81 0fbd 59b3 31bd 4319 2e3c
000002d0: f5e5 dbbd 3e19 923d 24ba a33c e17c 483d
000002e0: ff50 d6bd e4e4 143b cd20 eebc 942a a13d
000002f0: 724e c43d 22e3 293e 2757 6a3d 4125 e9bd
00000300: 8cdb 0cbd 6b9b e53d eb25 d8bc b1cd eb3d
00000310: 0a28 0bbd 6daf 98bd 76f0 113e 4e87 943d
00000320: 6dfa 3f3e 6444 5fbd cdcf 303c 74f3 953c
00000330: 0f10 91bd a958 acbd 4791 6dba f7c3 48bd
00000340: 88cd d0bd 187b a63b 1241 ed3c 1881 b93d
00000350: 1d72 2f3d 127a cdbd da80 873c 3447 533d
00000360: 775e 573e 9018 f4bc 2640 c9bd 7984 203d
00000370: 3dfb d93c 2fd6 d1bd 3f75 fa3c 7cd1 b7bd
00000380: be27 223d 1db6 c2bc ae56 8cbd 4cd6 383d
00000390: 5234 833d 8b2a 953d 4257 b8bd c977 ebbd
000003a0: 1dbe 133e d13b 903d 8e6b 8639 67b8 273e
000003b0: 16ce 733e f201 b6bd e209 0dbd 94f2 0dbc
000003c0: fd55 6f3d 742f 903d ef8b 7a3d 6621 2f3d
000003d0: d08e 8cbd e451 fb3c 7c54 7a3d cc4b c2bd
000003e0: b2e7 ba3b a190 ccbb 71b0 74bd f77b d2bd
000003f0: d0bf 0c3c ecac 873c 2426 eebd 9dff adbd
0.08845637 0.08160688 0.20023376 -0.12716027 0.05963468 -0.14363614 0.04720429 -0.09054949
-0.03545429 0.029223673 0.028410561 0.01632759 0.0278823 -0.027360443 -0.014837987 0.16433868
0.11940147 -0.11202574 0.017089728 0.052241545 0.053998817 0.006202713 0.055752333 0.08110305
0.08061708 0.04354346 0.040098883 0.047226287 -0.11438557 0.06413682 -0.0009110794 0.086478986
-0.016704872 -0.15943089 0.035327267 -0.11001271 0.04176049 -0.06276932 0.13319296 -0.02247436
0.1688394 -0.08368478 -0.12348561 0.054058637 -0.050760623 0.1789251 -0.03065147 0.22015363
-0.10959857 -0.046649467 0.04406706 0.13131115 -0.04666081 0.17559344 0.1465517 0.1908983
-0.022006216 0.0043859505 0.11356954 -0.025195407 -0.00083507365 0.17277129 0.25336474 -0.100143306
0.19178347 -0.053779885 0.02720408 -0.08496177 -0.06566526 0.005584383 0.15767056 -0.1014036
-0.032585565 0.0018565527 0.11437109 -0.052764192 -0.0045046713 0.111186855 0.12843728 -0.123096004
0.17066535 -0.07685031 0.017845055 -0.015060169 0.1973426 -0.16574566 0.1695402 0.1347755
0.05115522 -0.10817341 0.046197157 -0.0077610053 0.019942809 -0.023277335 0.053266495 0.16699447
-0.05063324 -0.1347516 -0.025374237 -0.047473107 -0.094200835 0.0119057065 -0.1488268 0.011129038
0.055849176 0.036097348 0.05592762 0.17576616 0.09203106 0.17561978 -0.036833495 0.046943
0.15702903 -0.09306753 0.054125283 0.16095753 0.03513146 -0.048554875 0.10536283 0.033671606
-0.039035484 0.0340484 0.12696657 0.10207891 0.1174975 -0.020859804 -0.05689577 -0.011389296
-0.025374148 -0.060993858 0.08074429 -0.048721775 -0.05331455 0.062757455 -0.017380407 -0.099175416
-0.089922644 -0.080771364 -0.019591866 0.1460322 -0.07301659 0.04292783 0.14136125 0.07159217
0.09112967 0.058604546 -0.07116927 0.0055699577 0.02426359 -0.009217059 -0.0011778115 -0.010103043
-0.052329075 -0.10942461 -0.022132788 -0.007796136 -0.044092003 -0.029722854 0.03660512 0.11293031
-0.085320525 -0.077760026 -0.11196674 0.09446269 -0.15637876 -0.037873853 -0.10135481 0.034642015
0.12709768 0.029493732 0.13642904 0.029608866 -0.032438487 0.09363991 0.040804837 0.03516159
-0.13312793 -0.035035785 -0.04338393 0.01062614 -0.1073722 0.07133721 0.01998622 0.04894722
-0.104646675 0.0022719437 -0.029068375 0.07869449 0.09585275 0.1659055 0.05721202 -0.11384059
-0.034389064 0.11211284 -0.026385268 0.11513842 -0.03397373 -0.07455335 0.14251885 0.0725237
0.18747874 -0.05450858 0.010791731 0.018304564 -0.07083141 -0.08415348 -0.00090624805 -0.04901501
-0.10195452 0.005080592 0.028961692 0.09057826 0.042833436 -0.10033049 0.016540933 0.051581576
0.21032129 -0.029796869 -0.098266885 0.039188836 0.026609058 -0.102459304 0.030573485 -0.08975503
0.039588682 -0.023768479 -0.0685247 0.045126244 0.06406464 0.07283505 -0.09001018 -0.114974566
0.14427991 0.07042659 0.00025638606 0.16378938 0.23809084 -0.0888709 -0.034433253 -0.008663792
0.058431614 0.07040301 0.061168607 0.04275646 -0.06863177 0.030678697 0.061115727 -0.09487113
0.0057038898 -0.006242827 -0.05973858 -0.10277551 0.008590654 0.016561948 -0.116283685 -0.0849602

model.3.weight f4 [128, 256]
00000000: e5db e13d 1c07 293d ec60 443d ebbc 0c3e
00000010: 7a9d be3e 5621 1dbe 7484 503e 13b9 b33e
00000020: 3065 fdbd 4b71 c43d 2f65 983e d409 98bd
00000030: 310e 293d ead1 6b3c 044e d03e 2fa5 b73e
00000040: 216a 623e 514f 9abe f4bb abbd c893 6abe
00000050: c7db 963e 8a67 803e 2fd6 63be ffc7 ed3e
00000060: 7e77 93bc 8c9d 953c 8853 56be f3f9 8d3e
00000070: 93a0 82be 5e93 f13e a737 50be 9fba 2a3d
00000080: 476e 00bd 8041 603c 9e72 64be 81fe 16be
00000090: 1335 753e fba7 293e 4cbc 093e d907 f43c
000000a0: b017 a0bc 21aa 753d fd53 95be 6f20 893d
000000b0: b6d2 0dbe 8948 86bb f33d 853d e6bf 0abd
000000c0: b342 243d 67ba 0abe 099b fd3d 090d 613d
000000d0: 94f4 56bd 4d82 8a3e 0cfe 13be d924 913e
000000e0: 4050 533e 87d8 363e 7953 f4bd 8fd4 e13e
000000f0: 5a35 423c c303 5abe 5f51 c63d c2ed 143d
00000100: 08bb 673d 3374 ba3d fc09 35be b9e7 0b3e
00000110: e2a8 6b3e 4b65 e63e 9a05 ab3e d5bf 173c
00000120: 2da5 d43e 06da aa3d 1e14 363d 9ee9 00be
00000130: d219 1cbd 259d df3d 75e5 003e 13a6 3abd
00000140: b8f3 fb3d c83d 8abc cc33 c0bc eb23 f73e
00000150: 6a6e d3bd b49c cd3d 5152 e93e a4b2 a63e
00000160: fe4f 9dbd 64b8 21be f5eb 1f3f 034d 2d3e
00000170: 5cf8 a8bd bd1e 393d b213 1c3d ccb4 06be
00000180: 0131 7ebd fbec 87be 4d1f fe3e dfe9 ca3d
00000190: d669 963d ad09 a6bd 654c 123f 07a6 bcbd
000001a0: 3419 96bd 4c3b 533d 49cc 653e d68a 113f
000001b0: 2af6 7fbe c260 063f 1c9a 97bd 13ab 11be
000001c0: 368c 003d c7c4 d6bd dae8 d7bd d72a 203e
000001d0: b0d6 b13d 78e5 86bd 9fcb c13e fb1e a7bd
000001e0: 3acf 073e a04b 593d 1911 4a3f 1b98 ddbb
000001f0: 5a6a cbbd 02b5 4fbe ebe8 3abe 3ab6 9cbc
00000200: ea7a 133e 08fd abbc 625f bd3e 3cf7 2abe
00000210: 3aff 86be 531f 98bb 4269 c5be 7bc2 e93d
00000220: 9e6c a43e 6070 db3d 8b2a 94be 5d02 fc3c
00000230: ba83 663e 90d0 203e ac9a 18be 3254 4abc
00000240: 8b28 45bd b450 f7bd 6218 1b3e 1456 b23d
00000250: 5df5 29bd 813a c23c fa3e 3b3e 477c 493d
00000260: 164b 343e fb0d 103f 2217 3d3e 3968 0abd
00000270: 1965 c7be 4fdf 343e cafb 1abe 9cdd 03be
00000280: 4d6c b3bd a0c5 aebd 8dfe 283c 2f6f 14be
00000290: 6bec dcbd 7ed4 35bd b4a0 65bd 8a26 0bbe
000002a0: 2b54 923d 0041 653c 70b5 f0bd 39ab 203e
000002b0: 4f7e d0be 8276 23bd eb3f a33d 6596 da3c
000002c0: ba3d cbbc ad75 eabd 702d b63c 5bd9 13be
000002d0: d323 b43e a253 3d3e 3c52 c73d db28 a1bd
000002e0: 6ded 6dbe 4fde e9bd b3e6 ed3d 6846 e9bd
000002f0: fc9d 24be 4d9b 053f 5ae1 19be 9b5d 333f
00000300: 5f1f ef3d 6e05 33bd 10b3 c1bc 5e49 d9bd
00000310: 18fc cc3d 81a7 cebc d785 ca3d ba5f 1c39
00000320: ad1e 90bd 2818 50bd 9c68 04bf f73c 0dbe
00000330: 5d79 73be a62f a6be b51f 16be 641e d5bd
00000340: d428 2cbe fc56 b03e 2abe 5b3e 74f7 fabd
00000350: e653 403e 7b69 cc3d 8571 2fbe 0f18 9b3d
00000360: 77ea a13e 864a 7d3e dbbe 603e a0b7 79bd
00000370: 974c 933e 4e78 c7be 0160 0c3d a470 383e
00000380: 65fc 453e 28d1 8d3d c656 adbd e9cd 253e
00000390: dcdd 0a3f 3a97 bcbd 0f32 cfbd e0b5 19be
000003a0: 70cd 593b e033 6f3e 8a97 d33d 873f 283f
000003b0: 5d23 6f3e 2180 f0bd 3da0 973e d67d 6fbe
000003c0: 41f1 fabd 9c72 62be b351 363d e7f4 563e
000003d0: 82ab d4bd 9a73 a3be 708c 2c3e 9456 243e
000003e0: 18cc b53e 2a19 3ebe 4abf e0bd 9ef9 493c
000003f0: bf00 8a3e 66bc 8ebe 815d a03d 801d 87bc
0.1102827 0.041266546 0.047943994 0.13743941 0.3722952 -0.15344748 0.20363027 0.35102138
-0.123728156 0.095919214 0.29764697 -0.074237496 0.0412733 0.014393309 0.4068452 0.35868213
0.22110797 -0.3013864 -0.083854586 -0.22907937 0.29464552 0.25078994 -0.22249673 0.46441647
-0.018001314 0.0182636 -0.20930302 0.2772976 -0.25513133 0.47182745 -0.2033373 0.041681882
-0.03135517 0.013687491 -0.22309348 -0.14745523 0.23946027 0.16567986 0.13450736 0.029788898
-0.019542545 0.0599767 -0.2916564 0.06695639 -0.13849911 -0.0040980023 0.065059565 -0.033874415
0.04010267 -0.1354767 0.12383086 0.054944072 -0.05247934 0.27052537 -0.1445238 0.28348425
0.20636082 0.17856036 -0.11929984 0.44107482 0.01185354 -0.21290497 0.09683489 0.036359556
0.05657485 0.091041945 -0.1767959 0.13662614 0.23013642 0.44999155 0.3340271 0.009262045
0.4153227 0.08342366 0.04445278 -0.12589118 -0.03811056 0.10918645 0.12587531 -0.045568537
0.12302345 -0.016875163 -0.023462199 0.4826959 -0.10323794 0.100396544 0.45570615 0.32558167
-0.07681273 -0.15792996 0.62469417 0.16923909 -0.08250496 0.04519533 0.03810472 -0.13154906
-0.062058453 -0.2654799 0.49633256 0.099078886 0.07344405 -0.08107314 0.5714782 -0.09211355
-0.07329026 0.05157022 0.2244121 0.5685247 -0.24996248 0.5249139 -0.07402441 -0.14225416
0.031383716 -0.10486751 -0.1054246 0.15641342 0.086835265 -0.065867364 0.37850663 -0.08160206
0.13262644 0.053050637 0.7893234 -0.006762517 -0.09932394 -0.20283893 -0.18252914 -0.019129861
0.14402357 -0.020994678 0.36986834 -0.16695875 -0.26366597 -0.004642406 -0.38556868 0.11414047
0.32114118 0.10714793 -0.28938708 0.030762846 0.22511187 0.1570456 -0.14902753 -0.012349175
-0.048134368 -0.1207594 0.1514602 0.08707824 -0.041493762 0.023709537 0.18285742 0.049190786
0.17606768 0.5627133 0.18465856 -0.0337908 -0.3894432 0.1766331 -0.15135112 -0.12877506
-0.08760891 -0.08533788 0.010314596 -0.14495538 -0.10787281 -0.0443921 -0.05606146 -0.1358892
0.0714496 0.013992548 -0.117533565 0.15690316 -0.40721366 -0.03990794 0.07971176 0.026683042
-0.024809707 -0.11448226 0.022238463 -0.14438383 0.35183582 0.18488935 0.09732482 -0.07869121
-0.23235102 -0.11419355 0.11616268 -0.11390382 -0.16075891 0.52190095 -0.15027371 0.70064706
0.116759054 -0.04370635 -0.023644954 -0.10609697 0.100090206 -0.025226356 0.09888809 0.0001491298
-0.07037101 -0.050804287 -0.5172212 -0.13792787 -0.23776765 -0.32458228 -0.14660533 -0.10406187
-0.1681245 0.34441364 0.2145926 -0.12254229 0.18782005 0.09981056 -0.17133148 0.07572948
0.31624195 0.2473546 0.21947806 -0.060966134 0.2876937 -0.38958973 0.034271244 0.18011719
0.19334562 0.06924659 -0.08463816 0.1619183 0.5424478 -0.09208532 -0.1011697 -0.15010786
0.0033234023 0.23359632 0.10331638 0.65721935 0.23353334 -0.11743189 0.2961444 -0.23387846
-0.12253047 -0.22114033 0.04451151 0.2099186 -0.10384275 -0.31924134 0.16850448 0.16048652
0.35507274 -0.18564287 -0.109739855 0.01232758 0.26953694 -0.27878112 0.078303345 -0.016493559

model.3.bias f4 [128]
00000000: b77e 013e 0da9 b33c f11f e33c 67e3 73bd
00000010: daa2 9dbd 237b 2cbd aaa0 9c3d b638 d4bc
00000020: 7ba7 673d 2aaa ccbc 197f 2b3d a941 cabc
00000030: 173e f13d 52ce 0e3d 8d06 b53d 572b ba3d
00000040: 76fc 043e a8bf 3cbd f624 d2bd 122e 86bd
00000050: 087c 233e 5083 85bd 6212 343e d69b d63d
00000060: a1dc 833c 58ee 023e d61c 343e 5f09 ca3b
00000070: 238a 91bd 4da1 893d fcaa 3bbe 7265 19bd
00000080: e8a9 d4bc 4d6d 5abc 780d 9d3d 4ada 763d
00000090: fc05 85bb 7c2f 5d3d fec6 b63d ed39 f63a
000000a0: f571 fc3d 17f5 673d 5b6e 083d a276 3b3e
000000b0: 5deb 793d 0255 62bd fb9c 193e d3c5 9c3d
000000c0: 16c2 983c 4553 8e3b 04d8 e13d 2990 c43d
000000d0: f458 9d3d f213 213d 8e63 003e 5503 093e
000000e0: b72e 923d 6145 423e 03a0 a13d 9313 e8bd
000000f0: 4130 afbc fa72 553d 8633 713d 36d7 cf3d
00000100: c097 26bd b5a4 30bb e735 c33d cc53 d0bc
00000110: 2fc1 86bc 1b61 a63d 1e9b cd3d b26a d1bd
00000120: 799c 9a3d 6617 3d3e 1d6e 163e db1c 8e3d
00000130: 4b97 083e 7ff7 193d 76e3 0c3d de50 1d3d
00000140: acc4 053e 4b38 3c3d ec63 023e 9595 f13d
00000150: b27f 0e3c b04f 953a 11f9 723c b1ab 7cbc
00000160: b179 673d f926 223e 99e0 c5bd 9ab5 3c3e
00000170: 23d9 363e 0c1f 853e 9da5 2c3e 24c2 ccba
00000180: ab46 a53c 0322 943d 6b00 8b3b 029d 163d
00000190: b826 0e3e 80b1 013e 1037 673c b7e8 993d
000001a0: 2b50 9fbd 6911 9bbd a643 143e 7c90 523c
000001b0: 9597 2d3d a983 2dbd 9617 e3bc 2659 3dbb
000001c0: 32d3 743e 80b8 073e d9d9 a33d a17a 1e3e
000001d0: 1142 ef3d 0145 043d c4c0 fa3d 9475 b5bd
000001e0: a17b 893d 727b 803d 2999 e73d 9fcd 91bc
000001f0: 9058 d0bd 64e4 003e fba1 723d 490d e23d
0.12645994 0.021931196 0.027725192 -0.05954304 -0.07697077 -0.04210962 0.07647832 -0.025905948
0.056556206 -0.024983484 0.041869257 -0.024689512 0.11779421 0.03486473 0.0883914 0.09090298
0.12986931 -0.046081215 -0.10260956 -0.06551756 0.15965283 -0.065191865 0.17585137 0.10478942
0.016096415 0.12786233 0.17589125 0.006165668 -0.071064256 0.06720219 -0.18326944 -0.03745026
-0.025959924 -0.013331723 0.076685846 0.06026677 -0.0040595513 0.054000363 0.089246735 0.0018785574
0.12326423 0.05663022 0.03330837 0.18306974 0.061015476 -0.05525685 0.1500129 0.076549195
0.018647235 0.0043434226 0.1102753 0.09597809 0.07682982 0.039325662 0.12537977 0.13380177
0.071378164 0.18971778 0.07891848 -0.113318585 -0.021385314 0.052111603 0.058887027 0.1014847
-0.040672064 -0.0026953642 0.095317654 -0.025430582 -0.016449539 0.0812399 0.10039352 -0.10225429
0.07549376 0.18465957 0.14690442 0.069390975 0.13338964 0.037589546 0.03439661 0.0384072
0.13063306 0.045952123 0.1273343 0.11796109 0.008697437 0.0011391547 0.01482989 -0.015421794
0.05651254 0.1583518 -0.09661979 0.1842865 0.17856269 0.2600025 0.16860051 -0.0015621823
0.020175299 0.0723305 0.004241993 0.036770828 0.13881958 0.12665367 0.014112249 0.0751509
-0.07778963 -0.0757168 0.14478931 0.012851831 0.042380888 -0.04236189 -0.027721208 -0.0028892248
0.2390869 0.13253975 0.080005355 0.15476467 0.11682523 0.03229237 0.122437984 -0.08860317
0.067130335 0.06273545 0.1130851 -0.017798243 -0.10173142 0.12587124 0.059236508 0.1103769

model.6.weight f4 [151, 128]
00000000: 4a2c cabe 9c28 8ebe 630d 19bd 7541 6cbd
00000010: afa4 acbd ec98 a5bd 4fd9 1ebf e620 55be
00000020: 532b 16bf 07eb d83c adbb 03bf d5c1 a7be
00000030: 70e5 323d 8bc9 f9be 8212 6cbf d114 45ba
00000040: d139 2cbd 7d26 2cbf ceb7 15be 7dc4 9fbd
00000050: e4bb c03d ae96 8cbd f43b b1bb 2899 5a3d
00000060: c29b cbbd 7922 74bd aeb5 df3d 50a7 95be
00000070: 2eae d83c 1a98 c3be e02e 2bbf a109 17bd
00000080: 1700 bcbd 7cad 8d3d 9753 27bc 7204 47bf
00000090: 7e19 a0ba 2bcf 233c 8097 813d a1e8 c4be
000000a0: 624b c9be 1c5f cebe f9af 6fbf 2fbb ab3d
000000b0: 8f59 bfbd 3684 32be d0f5 00bf 5b97 53be
000000c0: 4236 0bbf b609 82bd 9c35 893a 70d5 0f3e
000000d0: 81fb 43bf 3be2 9ebe 241b 9e3d 7834 313d
000000e0: c98a eabe 725e cb3d f3ed ea3d 78f6 12bf
000000f0: 146e bdbe f2a3 ee3c 8ef2 fa3d 2dc6 a3be
00000100: 9d8e 61bb a416 8fbe 5ad4 ba3d c193 16bb
00000110: a4bc 3cbe f78d 6cbf 80dd 23bf f535 77be
00000120: d5a0 9f3c b8ad b7bd 3f54 043e 2766 aa3d
00000130: 4906 093c 9e8f f6be 9475 67bf 9bb2 52bf
00000140: 8722 ee3d 3ed9 bfbe a679 ed3d bf41 12bf
00000150: 1ab6 84bd faae cb3c fce2 cdbc bca5 f6bc
00000160: bdce 53bd 8b60 cc3d d535 b7bd 745c e5be
00000170: 256b 923d 3783 e53d 5e6f 0e3e a0ee 39bf
00000180: 9aed 01bf 30b8 a73d 4262 b4be eab6 b43d
00000190: cd05 b83d 0490 3c3d 0d90 0bbd 092d 1dbf
000001a0: 255d b73d 5d5b bc3c 5da9 943d 657d 54be
000001b0: 6115 8cbc d98d 2fbf 5b15 b8be af6e b3bc
000001c0: bff9 5cbe c71f ba3d 9bb1 98bd 74c8 2d3e
000001d0: a079 12be 2ddb 36be 4e94 44bf 414f 3ebf
000001e0: 1b94 c3be 78d3 8d3d e096 373d 74fa d1be
000001f0: 085a d73c 90f7 cd3d 65f8 fb3d 6894 8b3d
00000200: 0795 79bd b98d 77bf 3f0b 21be 97b3 c5bd
00000210: 7f3d cebd 4c5e 023d 8c3d febc ce72 20bc
00000220: 81ee 573d 5cdc abbd fc81 e93d 3636 bc3d
00000230: 6dbd 223d f76a b93c 20ad 1a3e 0225 39bf
00000240: a7f2 9dbe 26ab f33d f83b 933d 3fcc c0bd
00000250: c2ae 683d 4021 7e3d ece1 e9bd e846 4dbf
00000260: e785 1bbf b590 303d 259f d03d 3a67 723d
00000270: 39d6 00bf b415 05be 4621 433c e138 fc3c
00000280: 4e5a efbe ba2c f4be 8713 8bbd 4d92 123d
00000290: 6573 84bd 3e5d c8be 16a9 55be 99a3 52be
000002a0: 9356 58ba 639c 08bf d162 dbbd 2cd4 6abf
000002b0: f896 64bf ef98 fd3d 6e08 583c 9bdc 2ebf
000002c0: f8d4 4cbe 259a 89be 9791 b73d 92ba 65bd
000002d0: dd56 893d b06d 72be c47f 63bc b5c0 7fbe
000002e0: 3919 16bd 0395 1fbf ea31 ce3b 5c2e 943d
000002f0: 7b19 b4be e2b6 9ebe 8a91 ccbb ee36 62bc
00000300: a300 f0bc c230 86be 5a8d a43d d0a6 2bbd
00000310: a76c 183d e8a8 a8bd 8372 e03d 07aa f73d
00000320: 1670 2bbf 1313 9cbe 3978 ebbd a022 0bbe
00000330: 9915 48be 0b55 c63d 8d64 f83d 10c5 c4bd
00000340: 41ff 35bd 03af e0be 7828 e3be 8b11 993d
00000350: 2878 bc3d 5f58 e43d c840 58be e5a6 afbd
00000360: 1f7c c9bc 68dd 69bd b3a0 d5bd 9ff7 403e
00000370: e507 22bf f1ee 06bf 59e1 c93d 1208 fcbe
00000380: 731f 88be 3b5b b5be 2d13 3c3d a992 3cbe
00000390: e885 2ebf f1ce 31bf 828c 7e3d b095 4c3d
000003a0: e7c5 913d e7c5 d33b 5bc9 9ebe 844d 81be
000003b0: c91a 1c3d f0a7 563d 0051 c33d 0480 1c3d
000003c0: 8e29 b5be dae5 d3be a832 c23c cc36 043e
000003d0: 9c8a 28bf 9962 90bd d118 5d3d d4fa 97be
000003e0: 7601 cabe 1bf2 e9be 32d8 8abe 160e 7cbe
000003f0: 2cd6 283d 3da0 1b3e c052 dcbd 1926 d23c
-0.39486915 -0.27765357 -0.037366282 -0.057679612 -0.084298484 -0.08085808 -0.62050337 -0.20813331
-0.5865986 0.026479257 -0.51458246 -0.3276507 0.04367584 -0.48786578 -0.9221574 -0.00075180555
-0.042047326 -0.6724623 -0.14620897 -0.07801149 0.09410837 -0.06864677 -0.0054087583 0.053368717
-0.09941818 -0.05960319 0.109233245 -0.29229212 0.026450243 -0.38201982 -0.668684 -0.036874417
-0.09179705 0.06917855 -0.0102128 -0.7774116 -0.0012214629 0.009998123 0.063277245 -0.38458732
-0.39315325 -0.40306938 -0.9362789 0.08385312 -0.09343254 -0.17433247 -0.5037508 -0.20663206
-0.54379666 -0.063495085 0.0010468247 0.14046264 -0.7655564 -0.31031975 0.077200204 0.04326293
-0.4580901 0.099301234 0.114711665 -0.5740733 -0.36998045 0.02913091 0.12253295 -0.31987134
-0.003441728 -0.2794696 0.09122534 -0.0022976252 -0.18431336 -0.9240412 -0.6400986 -0.24141677
0.01948587 -0.08968681 0.12922762 0.08320265 0.008363315 -0.48156446 -0.90413785 -0.8230378
0.11627679 -0.3747043 0.11595468 -0.5713157 -0.064800456 0.024863709 -0.025132649 -0.030108325
-0.051710833 0.099793516 -0.089458145 -0.447971 0.071493424 0.11206668 0.1390967 -0.7262974
-0.50753176 0.08189428 -0.35231215 0.088239506 0.089854814 0.04603578 -0.034072924 -0.61396843
0.08953313 0.022992784 0.07258866 -0.20750959 -0.017100038 -0.6857582 -0.35953793 -0.021903364
-0.21579646 0.09088092 -0.074557506 0.16970998 -0.14304209 -0.17857046 -0.76788795 -0.7433968
-0.38198933 0.069251 0.04482162 -0.41011393 0.026288047 0.100569844 0.12303237 0.068154156
-0.06093314 -0.96700627 -0.15726946 -0.09653395 -0.10070323 0.03182821 -0.031035207 -0.009792997
0.05271769 -0.083916396 0.11401746 0.091900274 0.03973143 0.022634013 0.15105104 -0.72322094
-0.30849192 0.11897878 0.071891725 -0.09413957 0.056807287 0.06204343 -0.11420044 -0.8018632
-0.60751194 0.043106753 0.101866044 0.059180476 -0.5032688 -0.1299656 0.0119097885 0.03078884
-0.46748585 -0.47690374 -0.06790834 0.035784055 -0.06467322 -0.39133638 -0.20865282 -0.2057022
-0.00082526467 -0.5336363 -0.10712207 -0.9173 -0.8929286 0.123826854 0.013185604 -0.6830537
-0.20003116 -0.26875415 0.08963316 -0.05608613 0.06706021 -0.23674655 -0.013885442 -0.24975856
-0.036645148 -0.6233675 0.0062925713 0.07235405 -0.3517569 -0.30998904 -0.0062429355 -0.013807042
-0.029297179 -0.26209074 0.08034773 -0.04190713 0.037212994 -0.08235341 0.109593414 0.12092977
-0.66967905 -0.30483302 -0.1149754 -0.13587427 -0.19539489 0.096841894 0.121285535 -0.09607899
-0.044432882 -0.43883523 -0.44366813 0.07474049 0.092026055 0.11149668 -0.21118462 -0.085767545
-0.024595318 -0.057095915 -0.104310416 0.1884446 -0.63293296 -0.52708346 0.09857435 -0.49224907
-0.26586494 -0.35421166 0.045916725 -0.18415321 -0.68173075 -0.6945639 0.062145717 0.04994744
0.07117825 0.006462801 -0.31012997 -0.25254452 0.03811148 0.05240625 0.09536934 0.038208023
-0.35383266 -0.413863 0.023705795 0.12911528 -0.658365 -0.07050056 0.053978745 -0.29683554
-0.3945424 -0.45692524 -0.2711807 -0.24614748 0.041219875 0.15197845 -0.10757971 0.025652932

model.6.bias f4 [151]
00000000: e663 3e3e ec1b 063e 048b 1fbe ddb1 153d
00000010: 9a76 fcbd 71c9 8dbd e9f6 853d 055b 3e3d
00000020: c048 f6bd 7264 983c 668a 913c 7e0c babd
00000030: 5dcb b83d 8abe 3fbd 9b7f 8c3d 4711 e0bc
00000040: 3695 3ebe 498d 4bbe d9b7 e43d 86d0 623d
00000050: 4e82 a9bd 3993 d63b b7b8 9ebd 2590 a1bc
00000060: a73d 043d 085f 033c a15b f2bd 7c64 8f3d
00000070: a385 983c b2c3 263d ec2b 65be f3c4 503d
00000080: f364 353e a70e 9a3c b479 163e caaf 0cbc
00000090: 0f5d c33d 4656 fa3d 5a4b de3d 295c 91bb
000000a0: c5f4 10be 251a dbbc 5d82 b9bd e414 7cbd
000000b0: 38d5 a6bc 45bc 07be 7580 363d 3444 02bc
000000c0: fcb9 22bd dc24 323e 9184 f83d 4451 753a
000000d0: 63d9 31be 46b8 023e 822b b0bc 5966 303e
000000e0: 3536 3f3d 5c57 98bd b37f c2bd 557d 88bd
000000f0: 51b3 a43d 8396 383e 4549 23be 228b 81be
00000100: e4a8 9ebc e167 05be c593 b6bc f2da 423c
00000110: 0d85 29bd f6ae 093e 0547 98bd 1561 2cbd
00000120: 64a7 74bd 13f1 963d 3143 243d da4e 37bd
00000130: 87ce fb3d 5ce2 bd3d e0ab 0abd 915e 28bd
00000140: 78fc 86bb 0fbd d2bd 80ef 72bd a72b 9abd
00000150: 1d10 bdbd 2488 bbbd 6bbd f83d a733 333c
00000160: 2dec aabd d83f 003d 5044 54bd 260e 133c
00000170: 6211 a53d 1986 603d 1bbf 14be 2e1d 90bc
00000180: f461 06bd 10d7 42bd e44c 703c e70b cd3d
00000190: aca5 723d 46d2 563d 4ad7 d03d 2990 5d3d
000001a0: 0b86 f9bc 8027 07bd f185 d9bc bc07 2ebe
000001b0: 17b9 28be 0fad 46bd 27c9 6cbc 0430 103d
000001c0: 4bd2 3abd 3c07 f73c 8dd1 ad3d fb49 2c3c
000001d0: 5a3e 9ebd 3e00 12bd 2c0e 663c 5239 3cbd
000001e0: 6f8b b5bd 1e29 da3c 5074 d2bd 23e4 ed3d
000001f0: 547a fdbb 1856 b2bd f249 943d f1f4 11bc
00000200: b530 e5bd f473 a4bd 5c01 98bd 7b4b 19be
00000210: bd69 333d 20ce 02be 1e6d 2f3e 8c7f 98bc
00000220: e4d2 de3d 591a cbbc bc63 96bc c741 43bd
00000230: e28a acbd 610f 2b3e b286 333d 3636 053c
00000240: 6de8 99bd ac6d a6bb 574a e2bd 5836 f03c
00000250: be49 b1bd 9318 223d 90ca 993c
0.18592796 0.13096589 -0.15580374 0.036546577 -0.12327309 -0.069231875 0.06541235 0.04647352
-0.12025595 0.018602584 0.017766189 -0.09084414 0.090231635 -0.04681257 0.06860276 -0.027351988
-0.18611607 -0.19878115 0.11167879 0.055374645 -0.08276807 0.006548312 -0.07750075 -0.019722054
0.03228536 0.008018263 -0.11833883 0.07001588 0.01861841 0.040713973 -0.22380036 0.050969075
0.1771429 0.018805815 0.14694864 -0.008586833 0.09539234 0.122234866 0.10854216 -0.004436035
-0.14155872 -0.026745865 -0.09058068 -0.06154336 -0.020365342 -0.13255413 0.0445561 -0.007950831
-0.03972815 0.17396873 0.1213466 0.0009358118 -0.17368083 0.12765607 -0.021505121 0.17226543
0.046682555 -0.074385375 -0.09497013 -0.0666453 0.080420144 0.18026166 -0.15945919 -0.25301462
-0.019367643 -0.13027908 -0.022287259 0.011893021 -0.041386653 0.13445649 -0.07435421 -0.042084772
-0.05972995 0.073702 0.04010314 -0.044752933 0.12295251 0.0927169 -0.03385532 -0.04110581
-0.004119452 -0.10289966 -0.059310436 -0.07527857 -0.09231589 -0.09156826 0.121455036 0.010937608
-0.08345828 0.031310886 -0.05182296 0.008975541 0.08059956 0.054815385 -0.14526026 -0.017592039
-0.03280826 -0.04756838 0.01466677 0.10012036 0.05924003 0.052446626 0.10197313 0.05409256
-0.030459424 -0.032996655 -0.026553126 -0.16995138 -0.16476856 -0.048504885 -0.014452255 0.03520204
-0.045610707 0.030154817 0.08487234 0.010515685 -0.07726736 -0.035644762 0.014041465 -0.045953102
-0.088644855 0.026630934 -0.10276091 0.11615779 -0.00773553 -0.08707827 0.072406664 -0.008908496
-0.11190931 -0.08029929 -0.07422134 -0.149702 0.04380201 -0.12773943 0.17131469 -0.018615507
0.10880068 -0.024792837 -0.018358104 -0.047670152 -0.08424927 0.16705085 0.043829627 0.008130601
-0.07515035 -0.005078992 -0.110493354 0.029322788 -0.08656643 0.039574217 0.018773347
